model.pth (torch, 375272 bytes, 8 tensors)

l0.weight f4 [45, 1928]
0	0x3ca5cf05	0.020240316
1	0x3bc15dc8	0.005901072
2	0x3c9d4a81	0.019200565
3	0x3b75edb0	0.0037525706
4	0xbc932cdd	-0.017965728
5	0x3be9a706	0.0071305064
6	0xbbbe490a	-0.005807047
7	0x3cf7edde	0.030264791
8	0x3c88828e	0.016663816
9	0x3c4a5bd7	0.012350998
10	0xbc899ace	-0.01679745
11	0xbcdbab5a	-0.026815105
12	0x3cbc61aa	0.022995789
13	0x39c5be48	0.0003771654
14	0xbc34eaab	-0.011042277
15	0xbce3cd15	-0.027807752
16	0x3cce9d1e	0.025221404
17	0x3b6135a0	0.0034364238
18	0x3cf61100	0.030037403
19	0xbc28aed7	-0.010295591
20	0xba817fba	-0.0009879984
21	0x3bf911d9	0.0076010046
22	0x3c9549c6	0.018223654
23	0xbc2e3c90	-0.010634556
24	0x3b5141ac	0.0031930013
25	0xba939713	-0.0011260234
26	0x3c8fa0cc	0.017532729
27	0x3c700da6	0.014651692
28	0xbb3647f5	-0.0027813886
29	0xbc3320d1	-0.010933117
30	0x3cd63d97	0.026152415
31	0xb9baa0b8	-0.0003559643
32	0x3cde2fa4	0.027122326
33	0xbaacdb3a	-0.0013187893
34	0x3c8fde6a	0.01756211
35	0xbc35d9ad	-0.011099261
36	0x3bd70b59	0.006562632
37	0x3ce964bf	0.028490422
38	0xbc773e97	-0.015090606
39	0xbc1a32f9	-0.009411567
40	0xbb00bc0e	-0.001964334
41	0xbc7a9ec9	-0.015296646
42	0x3c12fd3f	0.008971511
43	0xbcd9069c	-0.02649241
44	0x3d042beb	0.032268446
45	0xbc14ec55	-0.009089549
46	0xbcc330f3	-0.023827052
47	0x3bcc7f51	0.0062407632
48	0xbc8fc311	-0.01754907
49	0xbca01737	-0.01954232
50	0xbd3383a1	-0.043826703
51	0xbc26a0f5	-0.010170211
52	0x3c07367e	0.008252738
53	0x3c5428e0	0.0129491985
54	0x3c83051d	0.01599365
55	0x3c95feb4	0.018309928
56	0x3c3653f7	0.011128417
57	0xbc9530f9	-0.018211829
58	0x3c121632	0.008916425
59	0x3b773621	0.0037721472
60	0xbcba851e	-0.022768553
61	0xbbd4f510	-0.0064989403
62	0x3bd11ebc	0.0063818377
63	0xbb7c81e8	-0.0038529579
64	0x3ccbd141	0.024880053
65	0x3d0b819c	0.034059152
66	0x3c9c3448	0.019067898
67	0xbba1845a	-0.0049291076
68	0xbc859e99	-0.016310977
69	0xbcdcf92f	-0.026974289
70	0xbbce3fb8	-0.006294217
71	0xbc638588	-0.013886817
72	0x3c75e25f	0.015007584
73	0xbc52c21f	-0.012863665
74	0xbc6d7a8a	-0.014494548
75	0x3c582da4	0.013194475
76	0xbccfab3e	-0.02535021
77	0x3bc1baff	0.0059121842
78	0x3c74e263	0.014946553
79	0x3c61780b	0.013761531
80	0x3a66673c	0.0008789187
81	0xbc49c3bf	-0.012314736
82	0xba82682f	-0.0009949262
83	0xbca803c3	-0.020509606
84	0xbc42c53c	-0.011887845
85	0xbab43468	-0.0013748528
86	0xbbae2fdd	-0.0053157643
87	0x3a881897	0.0010383305
88	0x3c6eba5c	0.014570799
89	0x3ca8176f	0.020518987
90	0xbbf1f7f9	-0.007384297
91	0x3a09f6c3	0.00052629056
92	0x3c3926ae	0.011300726
93	0x3c60c159	0.013717973
94	0x3c86b1f1	0.016442271
95	0xbc84d980	-0.016216993
96	0x3c8ad20a	0.016945858
97	0xbc5f58b6	-0.01363199
98	0x3c1a58b3	0.009420562
99	0xbca06080	-0.019577265
100	0x3b7ef721	0.0038904625
101	0x3c26622a	0.01015524
102	0x3c97355c	0.01845806
103	0xbc20a974	-0.009806026
104	0x3c8eef0d	0.017447973
105	0xbca65484	-0.020303972
106	0x3c76323d	0.015026626
107	0x3c4d84d8	0.012543879
108	0x3bf464b0	0.007458292
109	0x3b67c8de	0.003536753
110	0x3bd510d7	0.0065022516
111	0xbc0de75d	-0.008661118
112	0xbca5bcbb	-0.020231595
113	0xbcd89667	-0.026438905
114	0xbb7e57db	-0.003880969
115	0xbd0ffbde	-0.03515231
116	0x3b38af6f	0.0028180738
117	0x3cac9d59	0.021071123
118	0xbc8a5a89	-0.016888874
119	0xbcc3120d	-0.023812318
120	0xbc83673c	-0.016040437
121	0x3c3368b0	0.010950252
122	0x3c395b4c	0.011313271
123	0xbc595fdf	-0.013267486
124	0xbc7273cf	-0.014798119
125	0xbc6282ba	-0.013825113
126	0x3c96df16	0.018416923
127	0x3bc0cb55	0.005883614
128	0xbcc74efa	-0.024329651
129	0xbc273d5e	-0.010207502
130	0x3acabde8	0.0015467973
131	0xbd05ac00	-0.032634735
132	0xbc34f6f3	-0.011045205
133	0x3ce05acb	0.027387043
134	0xbc98a599	-0.01863365
135	0xbc2ca696	-0.010537764
136	0x3cdb2c66	0.02675457
137	0x3ca61d28	0.020277575
138	0x3c445f74	0.011985648
139	0x3bb9a204	0.0056650657
140	0x3b9219c5	0.0044586384
141	0xbc829b31	-0.015943142
142	0xbd0e1026	-0.03468337
143	0xbc1f102e	-0.009708447
144	0x3c0c3f8c	0.008560073
145	0xbca0c1be	-0.019623633
146	0xbc2dd58e	-0.010609997
147	0xbbe217ab	-0.006899794
148	0xbcca95fa	-0.024729718
149	0x3c83ef07	0.016105188
150	0x3b347f71	0.0027541781
151	0x3c8b0753	0.016971266
152	0x3a64c7a4	0.00087272585
153	0x3c03b634	0.008039046
154	0x3c9f43a3	0.019441431
155	0xbbe4660a	-0.006970172
156	0xbb96c45c	-0.0046010446
157	0x3bf04189	0.007332031
158	0xbd3bdafc	-0.045863137
159	0x3b0dd2a2	0.002164044
160	0x3c2eecc5	0.010676567
161	0xbbc39acd	-0.0059693814
162	0x3c641380	0.013920665
163	0xbc94f8e0	-0.01818508
164	0x3c957c21	0.018247666
165	0x3930264d	0.00016798936
166	0xbca43bb4	-0.020048
167	0xbc19c816	-0.009386083
168	0x3cbecd89	0.023291366
169	0x3bccb625	0.0062472993
170	0xbbe90aaf	-0.0071118693
171	0xbc66939d	-0.01407328
172	0xbc60a3d9	-0.013710939
173	0xbc7d95fb	-0.015477653
174	0xbcc1f6af	-0.023677198
175	0xbac8d9cd	-0.0015323699
176	0x3b2dc487	0.0026514845
177	0xbd0c2288	-0.03421262
178	0xbc3d5603	-0.011556151
179	0xbc14c9c4	-0.009081308
180	0xbc9bd0f0	-0.019020528
181	0xbb81fd33	-0.0039669513
182	0xbc66148e	-0.014042987
183	0xbbf16d3d	-0.0073677585
184	0xbc9e4b3a	-0.01932298
185	0x3c8cf118	0.017204806
186	0xbc84ed87	-0.016226543
187	0x3bb4e42e	0.005520365
188	0x3b7a181b	0.003816134
189	0x3c7fa8a8	0.015604176
190	0xbcd12dfa	-0.025534619
191	0x3c17f9a5	0.0092758285
192	0x3bdb4e54	0.006692687
193	0x3bc278c8	0.0059348084
194	0xbd0047b3	-0.031318378
195	0xbd0e6450	-0.034763634
196	0xbc57c83c	-0.013170298
197	0xbcef1a4b	-0.029187342
198	0xbc86b9c5	-0.016446004
199	0x3b8da90e	0.0043231314
200	0xba173e65	-0.00057694904
201	0xbcb3d8c1	-0.021953942
202	0x3c6dfc05	0.014525418
203	0xb86e0785	-5.6750625e-05
204	0xbc82761f	-0.015925465
205	0x3cbcfde8	0.02307029
206	0xbbcfe301	-0.0063441996
207	0x3c4599bc	0.012060579
208	0xba8b3aa6	-0.0010622337
209	0xbced8616	-0.028994601
210	0xbb74432b	-0.003727148
211	0xbc178a57	-0.009249291
212	0xbc8b3e9a	-0.016997624
213	0x3c368363	0.0111397235
214	0xbce35269	-0.027749257
215	0x3d10a23c	0.03531097
216	0xbc4859ec	-0.01222847
217	0xbcdcf4ce	-0.0269722
218	0x3bb3cb34	0.00548687
219	0xbad6f14f	-0.001639882
220	0xbbbe6d62	-0.0058113793
221	0xbbc59df3	-0.006030792
222	0xbca273e6	-0.019830655
223	0x3c079fb7	0.008277825
224	0x3be87198	0.0070936196
225	0xbc928162	-0.01788396
226	0xbc7f2022	-0.015571626
227	0xbbd84d30	-0.0066009983
228	0xbb928748	-0.004471693
229	0x3c120657	0.008912644
230	0x3bc81909	0.0061065
231	0xbd0a7ce5	-0.033810515
232	0x3c0eed8d	0.008723629
233	0xb911c3c4	-0.00013901206
234	0x3c7dc031	0.0154877165
235	0xbb24dc43	-0.00251557
236	0xbcd9e904	-0.026600368
237	0x3ccab0b0	0.024742454
238	0xbc69e25b	-0.014275159
239	0x3cae96d6	0.021312159
240	0xbc986d5e	-0.018606838
241	0xbbf217f0	-0.0073881075
242	0xba8a15c1	-0.0010535048
243	0xba7c3360	-0.00096206926
244	0x3c42678a	0.011865506
245	0x3b2a6dbb	0.0026005346
246	0x3a833201	0.0010009409
247	0xbaf0ce08	-0.0018371949
248	0x3cd7260c	0.02626326
249	0xbc875498	-0.01651983
250	0x3c548b22	0.012972625
251	0x3c8b79c3	0.017025834
252	0xbd1c1737	-0.038108077
253	0x3c5a70a7	0.0133325225
254	0xbb16f41c	-0.0023033684
255	0xbc0e51c0	-0.008686483

l0.bias f4 [45]
0	0x3da26ce4	0.079309255
1	0x3d41e0e9	0.04733363
2	0x3d295ba2	0.041347153
3	0x3cddd4fa	0.027079094
4	0x3d2425ad	0.040074993
5	0xbd55b33e	-0.05217289
6	0xbd67aa76	-0.05655905
7	0x3dae7738	0.08518833
8	0x3c26d946	0.010183638
9	0x3d80b3ce	0.06284295
10	0xbc9f2646	-0.01942743
11	0xbbdef800	-0.0068044662
12	0xbc9b9193	-0.018990314
13	0xbdc7bb06	-0.09752469
14	0xbda7fd9e	-0.082026705
15	0xbd32f313	-0.043688845
16	0xbd38abf7	-0.045085873
17	0xbd90032b	-0.07031854
18	0x3da45d7a	0.08025642
19	0xbdb1ea75	-0.08687297
20	0x3c8db1d9	0.017296718
21	0x3d866b52	0.065634385
22	0xbcfbf709	-0.030757444
23	0x3d98a73f	0.07453775
24	0x3da9ecc9	0.08297116
25	0x3d92ecc1	0.071740635
26	0x3d8159e6	0.06315975
27	0xbd1f38b8	-0.03887245
28	0x3d75a60b	0.059972804
29	0x3d8cc2c9	0.0687309
30	0x3c769360	0.015049785
31	0xbd7e4788	-0.062079936
32	0x3c8de47c	0.017320864
33	0xbce81f45	-0.028335223
34	0xbd3ce361	-0.046115283
35	0xbd506de3	-0.050886046
36	0x3d10dd83	0.0353675
37	0x3d604190	0.054750025
38	0xbd0ef86b	-0.03490488
39	0x3d062680	0.03275156
40	0x3d768797	0.060187902
41	0xbd807d8a	-0.06273945
42	0x3d9364fb	0.07196995
43	0x3d065956	0.03280004
44	0xbd017f4b	-0.031615537

l1.weight f4 [45, 45]
0	0xbda7deef	-0.08196818
1	0xbdc17419	-0.09445972
2	0xbdbaf095	-0.09127919
3	0xbb75ed9a	-0.0037525655
4	0xbe4ab5f4	-0.19795972
5	0xbdaf9b9e	-0.085746035
6	0xbbf2cef3	-0.007409924
7	0xbdda7f24	-0.106687814
8	0xbdae471a	-0.08509655
9	0xbd98263b	-0.07429167
10	0x3d1e4268	0.03863755
11	0xbcab5547	-0.020914687
12	0xbb2aefd6	-0.0026082895
13	0x3dcd670d	0.10029421
14	0x3ddb9a0e	0.10722743
15	0x3d9c8005	0.07641605
16	0x3e2cf68b	0.16890924
17	0x3dd588d5	0.10426489
18	0xbe212a48	-0.15738785
19	0x3e478661	0.19484855
20	0x3cb3f6f3	0.02196834
21	0xbe1ab032	-0.15106276
22	0xbdb1870c	-0.08668336
23	0x3b47f385	0.003051014
24	0x3c651d9f	0.013984113
25	0xbe3f0961	-0.18655922
26	0xbe09a71c	-0.13442653
27	0x3e019419	0.12654151
28	0xbdd69678	-0.104779184
29	0x3da0cd1d	0.07851622
30	0xbdaaa351	-0.083319314
31	0xbd467aad	-0.048456836
32	0xbc4c20f6	-0.01245903
33	0xbd4f8f3f	-0.05067372
34	0x3dfbecc7	0.12301021
35	0x3e202aaa	0.15641275
36	0xbddce061	-0.107849844
37	0x3d1f71ac	0.038926765
38	0xbd0c8580	-0.034307003
39	0xbe0dafd2	-0.13836601
40	0xbdbd875f	-0.092543356
41	0x3b0b570e	0.0021261605
42	0xbd8e6bf4	-0.06954184
43	0xbe38ccb2	-0.18046835
44	0x3df26d45	0.11837248
45	0x3bc15aba	0.005900708
46	0xbca54442	-0.02017415
47	0x3d209caa	0.039211906
48	0xbb6fce83	-0.0036591596
49	0xbde7a294	-0.11310306
50	0xbcd5f227	-0.026116444
51	0x3e059fa0	0.13049173
52	0xbdbc1439	-0.09183545
53	0x3b108e44	0.0022057453
54	0xbe3f8055	-0.18701299
55	0x3d91709a	0.07101555
56	0x3e022a0b	0.1271135
57	0x3e133d4b	0.1437885
58	0xbc71ec50	-0.014765814
59	0xbd93fa18	-0.07225436
60	0xbd21bfc9	-0.03948954
61	0xbd2730ba	-0.040817954
62	0x3d8f1936	0.069872305
63	0xbe299bc4	-0.16563326
64	0x3e2d0619	0.16896857
65	0xbd9b97ae	-0.0759729
66	0xbe0da8c7	-0.13833915
67	0x3d11bd51	0.035580937
68	0xbdbbaefa	-0.091642335
69	0xbd7f27fe	-0.062294
70	0xbd8ab374	-0.06772509
71	0xbda8400a	-0.082153395
72	0x3e32cb9e	0.17460486
73	0xbc9e0458	-0.01928918
74	0xbe3e8218	-0.18604314
75	0xbde216f3	-0.110395335
76	0xbd99c4c0	-0.0750823
77	0xbd284481	-0.041080955
78	0x3dffbddf	0.12487387
79	0x3d662d53	0.05619557
80	0xbcb37b8a	-0.021909494
81	0xbe0a0907	-0.13480006
82	0xbd86a227	-0.06573897
83	0xbdac14f2	-0.084024325
84	0xbe1cb787	-0.15304385
85	0xbe276286	-0.16346177
86	0x3e1ed5e5	0.15511282
87	0xbdd8e5fc	-0.10590741
88	0xbd58e463	-0.05295218
89	0x3e1cbf80	0.15307426
90	0xbdf931f7	-0.12167733
91	0xbc29d02b	-0.0103645725
92	0xbe53e539	-0.2069291
93	0xbda80ad7	-0.082051925
94	0xbd959e0a	-0.07305534
95	0x3d1be7bd	0.0380628
96	0x3e32e60d	0.1747057
97	0x3d7ad4eb	0.06123821
98	0x3d732785	0.05936386
99	0xbe0591a6	-0.13043842
100	0x3e39dd2e	0.1815078
101	0x3dde1548	0.10843903
102	0xbd066529	-0.032811318
103	0x3e40ee95	0.18841012
104	0x3e26e835	0.16299517
105	0x3c2ab100	0.010418177
106	0x3dc85273	0.09781351
107	0x3dca0544	0.098642856
108	0xbe22fc5b	-0.15916578
109	0xbd8454f6	-0.064615175
110	0x3d702fae	0.05863922
111	0xbdc7a7ad	-0.097487785
112	0x3e048cb7	0.12944303
113	0x3da21c94	0.07915607
114	0xbe1ce1d3	-0.1532052
115	0xbd8fae5f	-0.070156805
116	0xbd93fe92	-0.0722629
117	0x3df3781e	0.11888145
118	0x3db8866a	0.090100124
119	0xbe0cd571	-0.13753296
120	0xbdf961a8	-0.121768296
121	0x3e042726	0.12905559
122	0x3d172710	0.036902487
123	0x3e33fc68	0.17576754
124	0x3c128e4b	0.008945058
125	0x3e43f008	0.19134533
126	0xbe04f1ea	-0.12982908
127	0xbd94834c	-0.072516054
128	0x3ca258a7	0.019817663
129	0xbdb04a5a	-0.086079314
130	0xbdd134f6	-0.102151796
131	0xbd60e5c6	-0.05490663
132	0xbd6e5060	-0.05818212
133	0xba63d148	-0.0008690548
134	0x3dcc1bdd	0.09966252
135	0x3c9ccfe6	0.019142102
136	0x3e210258	0.1572355
137	0x3dc44f16	0.09585397
138	0x3e2102ec	0.15723771
139	0x3d8c1e1f	0.06841683
140	0xbe2dd1a0	-0.16974497
141	0x3d234ab4	0.039866164
142	0x3d0998c6	0.03359296
143	0x3d59d91f	0.05318558
144	0x3e35fd46	0.17772397
145	0x3d696204	0.05697824
146	0xbdc0bbe5	-0.09410838
147	0xbd6a635d	-0.057223666
148	0x3d9e9a31	0.077442534
149	0xbc149ad1	-0.009070114
150	0x3b8db7f6	0.0043249084
151	0x3c47e135	0.01219969
152	0xbca123fd	-0.01967048
153	0x3d1321ed	0.035921026
154	0x3d0fec9c	0.035137758
155	0x3e183868	0.14865267
156	0x3e072b61	0.13200141
157	0x3cdbb3ed	0.026819194
158	0x3d47b514	0.048756674
159	0x3ccd69c1	0.025074841
160	0xbc85620b	-0.016282102
161	0x3d202124	0.039094105
162	0xbe0d7921	-0.13815738
163	0x3d4c2997	0.04984435
164	0x3df6bc5a	0.12047644
165	0x3e24edc1	0.16106321
166	0x3d0cff0c	0.03442292
167	0xbcbbc693	-0.022921836
168	0xbd64cec2	-0.055861242
169	0x3db4a76d	0.088209964
170	0xbe0d2a9e	-0.13785788
171	0xbd658de5	-0.056043524
172	0x3c657073	0.014003861
173	0x3dd8f4c5	0.10593561
174	0xbcbc25f7	-0.022967322
175	0x3d81040d	0.06299601
176	0x3dafd473	0.08585443
177	0x3e48697a	0.19571486
178	0x3e3f2eee	0.18670246
179	0xbd2403a5	-0.04004254
180	0xbd55e9e6	-0.052225016
181	0xbd9864e7	-0.074411206
182	0x3d343481	0.043995384
183	0xbe16b41e	-0.14717147
184	0xbdc2a608	-0.09504324
185	0x3dd28f3b	0.10281225
186	0x3d940fac	0.07229552
187	0xbd99859e	-0.074961886
188	0xbde73df7	-0.11291116
189	0xbe22f25a	-0.15912762
190	0x3d81ae81	0.06332112
191	0xbb3e9224	-0.0029078806
192	0x3d3bcd4d	0.045850087
193	0x3de21e63	0.11040952
194	0x3e2511ae	0.16120026
195	0x3e29a1ae	0.16565582
196	0x3e356021	0.17712452
197	0x3c81e774	0.015857436
198	0xbe06e944	-0.13174921
199	0x3e273784	0.16329771
200	0xbe4b583d	-0.19857879
201	0xbe271af9	-0.16318883
202	0xbd9e870c	-0.07740602
203	0xbd6ba018	-0.057525724
204	0xbdd4e8e0	-0.1039598
205	0xbc5868ac	-0.0132085495
206	0xbd32b9a5	-0.043634076
207	0xbb43bec0	-0.0029868335
208	0x3c363808	0.011121757
209	0xbc2f9024	-0.010715518
210	0xbe311f35	-0.17297061
211	0x3d03d486	0.0321851
212	0x3d9e8c86	0.077416465
213	0xbd952c1e	-0.07283805
214	0x3e1f49ea	0.1555554
215	0x3d9a696b	0.07539638
216	0x3c32da18	0.010916255
217	0xbd769556	-0.06020101
218	0x3dc45751	0.09586967
219	0x3cc03bea	0.02346607
220	0xbab1cbcc	-0.0013564765
221	0x3d417c4b	0.047237676
222	0xbd8f5116	-0.06997888
223	0xbe3faf8a	-0.18719307
224	0x3e154b56	0.1457952
225	0xbdec6132	-0.11541976
226	0xbd9f1f3c	-0.07769629
227	0xbd50a07c	-0.0509343
228	0xbd0d884b	-0.034553807
229	0xbe368296	-0.17823252
230	0x3e2408f4	0.1601904
231	0x3e3560cf	0.17712711
232	0xbe456b81	-0.1927929
233	0xbddcfcdf	-0.10790419
234	0xbe1e922d	-0.15485449
235	0xbcc9b745	-0.024623523
236	0x3dc03cc4	0.0938659
237	0x3cd03c5c	0.025419407
238	0x3e34d392	0.17658833
239	0x3dfe7d88	0.12426287
240	0xbd2da07d	-0.04238938
241	0x3e16ad66	0.14714584
242	0xbd0b3fa0	-0.033996224
243	0x3da1d426	0.07901792
244	0x3bab7684	0.005232634
245	0xbdcb7cab	-0.09935888
246	0xbded2231	-0.11578787
247	0x3d925990	0.07145989
248	0xbd3be218	-0.045869917
249	0xbda9885a	-0.0827796
250	0xbe226dfb	-0.15862267
251	0xbe340ec9	-0.17583765
252	0x3db5e455	0.088814415
253	0xbdf350ba	-0.11880632
254	0xbd2e5f5f	-0.04257142
255	0xbe28adfb	-0.16472618

l1.bias f4 [45]
0	0x3d5c2059	0.053741787
1	0xbd465712	-0.04842288
2	0x3d370636	0.044683658
3	0xbd0503cb	-0.03247432
4	0xbde4f467	-0.111794285
5	0xbd77f369	-0.06053487
6	0xbd9e9d97	-0.077449016
7	0xbe01118b	-0.12604348
8	0x3d27b36b	0.04094259
9	0x3d30a436	0.043125354
10	0xbe116c67	-0.14201508
11	0xbd022f5a	-0.03178344
12	0xbe1abc8c	-0.15110987
13	0xbe03aa10	-0.12857842
14	0xbd5eb24f	-0.054369267
15	0xbdcc98a4	-0.099900514
16	0x3d481477	0.04884764
17	0xb9645ea0	-0.00021779025
18	0xbe27da8e	-0.16391966
19	0xbe294944	-0.16531855
20	0x3df4ce3e	0.119534
21	0xbb37e958	-0.0028062668
22	0x3dde7ad9	0.10863275
23	0xbceb88ba	-0.02875172
24	0x3dbb5ad1	0.09148181
25	0xbe19b06f	-0.1500871
26	0xbdc37bfd	-0.09545133
27	0xbcaee459	-0.021349119
28	0xbe0ef8d0	-0.13962102
29	0xbe16b232	-0.14716414
30	0xbe2ec3b3	-0.17066841
31	0xbdaa381a	-0.08311482
32	0xbe15fa08	-0.1464616
33	0x3d52692d	0.051369835
34	0x3dccb8d9	0.099961944
35	0x3c83d46e	0.016092505
36	0xbde4827e	-0.11157702
37	0x3ddc731b	0.10764142
38	0x3ccc9c88	0.024976984
39	0xbd9c15fa	-0.07621379
40	0xbe31ed76	-0.1737574
41	0x3b917a20	0.0044396073
42	0xbd9bc4a6	-0.07605867
43	0x3dcc00bc	0.099610776
44	0xbdf0a0f8	-0.11749452

l2.weight f4 [88, 45]
0	0xbda965ce	-0.08271371
1	0xbdc853e0	-0.09781623
2	0xbdeff46a	-0.1171654
3	0x3da37a1e	0.079822764
4	0x3c858f97	0.01630382
5	0xbcc819c8	-0.024426356
6	0xbd210d52	-0.039319344
7	0xbcf567c2	-0.029956702
8	0x3cf079db	0.02935498
9	0x3d2be50a	0.041966476
10	0x3d9e1c52	0.077202454
11	0x3bf8c9b9	0.0075924066
12	0xbdf8ced2	-0.12148823
13	0xbd5c95e2	-0.053853877
14	0xbd4915a5	-0.049092907
15	0xbe129441	-0.14314367
16	0x3d770489	0.06030706
17	0x3d05acec	0.032635614
18	0x3dee50f8	0.11636537
19	0x3d4956f1	0.04915518
20	0xbe08a2ee	-0.13343403
21	0xbdceca62	-0.10097195
22	0xbd99bcb4	-0.075066954
23	0x3da996bb	0.08280703
24	0xbe08af0f	-0.1334803
25	0x3bae182a	0.005312939
26	0xbd5285ce	-0.051397137
27	0x3e12a6c7	0.14321433
28	0x3dbba89c	0.09163019
29	0x3e16b119	0.14715995
30	0xbd83c4b9	-0.06434006
31	0x3c9ad4ab	0.018900236
32	0x3e06b740	0.13155842
33	0x3d19264d	0.037390042
34	0x3d257408	0.04039386
35	0xbdad0464	-0.08448103
36	0xbde26698	-0.110547245
37	0x3e11ab80	0.14225578
38	0x3c8f5de0	0.017500818
39	0x3d85c8d6	0.06532447
40	0xbe0177de	-0.12643382
41	0xbd62270d	-0.055213023
42	0xbd2c8988	-0.042123348
43	0xbcae23d5	-0.02125732
44	0x3becb9ba	0.007224289
45	0xbd5cff53	-0.053954434
46	0x3c2458ac	0.010030907
47	0x3e1837cb	0.14865033
48	0xbd17ab2c	-0.037028477
49	0x3d032b13	0.0320235
50	0xbd6b424b	-0.05743627
51	0xbaceb229	-0.0015769649
52	0x3dcdfa47	0.10057502
53	0xbc8a5fe6	-0.016891431
54	0x3dd9bb0b	0.10631379
55	0x3c4e8b59	0.012606465
56	0x3dff549f	0.12467312
57	0xbcc2bfc5	-0.023773083
58	0xbd00add2	-0.031415768
59	0x3dab0656	0.08350818
60	0x3db8faef	0.09032237
61	0x3e16c6c4	0.1472426
62	0xbcb4dc63	-0.022077745
63	0x3dcf0eeb	0.10110267
64	0xbdbf1bc7	-0.0933147
65	0x3c92469d	0.017855937
66	0x3d80c845	0.062881984
67	0x3de55e1e	0.11199592
68	0x3e174a24	0.14774376
69	0x3e0c04be	0.13673684
70	0x3d4a2aa4	0.04935707
71	0x3e0ecceb	0.13945358
72	0x3d89e717	0.0673353
73	0x3c890e25	0.016730377
74	0xbd179320	-0.037005544
75	0x3de8f367	0.1137455
76	0x3c96cad6	0.018407267
77	0x3d836cba	0.06417222
78	0x3da3c90d	0.07997332
79	0x3df6f6d0	0.120587945
80	0x3b827d90	0.0039822534
81	0xbd33973a	-0.043845393
82	0xbdfd76ea	-0.12376197
83	0xbb5f2bae	-0.0034053135
84	0x3d645bff	0.055751797
85	0xbd838fd3	-0.06423917
86	0x3dde00bf	0.10839986
87	0x3e0f62ff	0.14002608
88	0x3dd88bd8	0.10573548
89	0x3dd70446	0.10498862
90	0x3cf51008	0.02991487
91	0x3d3f9f83	0.04678298
92	0x3bfd1974	0.0077239815
93	0xbde6bf28	-0.11266929
94	0xbd867026	-0.06564359
95	0xbdddaec9	-0.10824353
96	0xbdc4f9ac	-0.09617934
97	0xbd9d47be	-0.07679699
98	0xbc4833e2	-0.012219401
99	0x3d86ebb5	0.06587926
100	0x3d43a96d	0.047769
101	0x3d0c6186	0.034272693
102	0xbc03a280	-0.0080343485
103	0x3d8e643e	0.069527134
104	0x3d660d45	0.056165
105	0x39b4e5e8	0.0003450357
106	0x3b82fb08	0.0039972104
107	0x3d1292d4	0.035784557
108	0x3de412bc	0.11136386
109	0xbc9c787a	-0.019100416
110	0xbcb75dbe	-0.022383567
111	0xbc98bcfe	-0.018644806
112	0xbd5e40a4	-0.054260865
113	0x3dc59187	0.09646898
114	0xbe1bb274	-0.15204793
115	0xbe1a44cc	-0.15065306
116	0x3e158878	0.1460284
117	0x3dac6ee5	0.08419589
118	0x3d96eb3c	0.07369086
119	0x3d7ee5a5	0.062230725
120	0x3df817d9	0.121139236
121	0x3d7cdf0a	0.061736144
122	0xb90b6a3e	-0.00013295651
123	0x3c1c96cf	0.00955744
124	0x3c446dbb	0.011989052
125	0xbcea16ec	-0.028575383
126	0x3df6fd1c	0.120599955
127	0xbd1e40b3	-0.03863592
128	0x3d586596	0.052831255
129	0xbd0e85f2	-0.03479571
130	0xbdf42cfc	-0.119226426
131	0x3da721b0	0.08160722
132	0xbe145cb6	-0.14488491
133	0xbdab7d5f	-0.08373522
134	0xbd1f3b99	-0.038875196
135	0x3cc5b5bc	0.02413451
136	0xbcf6c822	-0.030124728
137	0x3c3661b3	0.011131692
138	0xbdc8695e	-0.09785722
139	0x3df2be52	0.11852707
140	0x3db81676	0.08988659
141	0x3c2f4c1b	0.010699297
142	0xbcf41e27	-0.029799534
143	0x3dee1201	0.11624528
144	0xbcc123a8	-0.023576573
145	0x3c0de47d	0.008660433
146	0x3d92f4e7	0.07175618
147	0xbc8db598	-0.017298505
148	0xbc568faf	-0.01309578
149	0x3d3b804f	0.04577666
150	0xbd072f67	-0.03300419
151	0x3d5fd37c	0.054645047
152	0xbca50b27	-0.02014692
153	0xbd9e818d	-0.077395536
154	0x3e16c7d8	0.14724672
155	0xbc34bf9b	-0.01103201
156	0xbd68725d	-0.05674969
157	0xbdf76afc	-0.120809525
158	0x3dcdf0ac	0.1005567
159	0x3d762fc6	0.060104154
160	0x3cdd13ea	0.026987035
161	0x3ddc5fd6	0.10760467
162	0xbe0b2eea	-0.13592115
163	0x3e09870a	0.1343042
164	0x3e08bdfd	0.13353725
165	0xbcd329c8	-0.025776759
166	0x3e0368b5	0.12832911
167	0xbc796106	-0.015220886
168	0xbd02efa3	-0.031966817
169	0xbdfe5d9f	-0.124202006
170	0x3d62c15a	0.055360176
171	0x3e00ace0	0.12565947
172	0xbd2ee118	-0.042695135
173	0x3dca896a	0.09889491
174	0xbd9a39ac	-0.07530531
175	0xbdb3057f	-0.08741283
176	0xbdef07da	-0.116714194
177	0x3deeb1a0	0.11654973
178	0x3d36ae26	0.044599675
179	0x3d0478a3	0.03234161
180	0x3ca67b7d	0.020322556
181	0xbce0e921	-0.027454915
182	0xbcc7a0a0	-0.024368584
183	0x3d08cf8c	0.033401057
184	0xbdc6bb93	-0.09703746
185	0xbcbebeec	-0.023284398
186	0xbb3f4019	-0.0029182492
187	0xbdec6100	-0.11541939
188	0xbe1d0355	-0.15333302
189	0x3d95bfe8	0.07311994
190	0x3dc4013c	0.09570548
191	0xbd73166f	-0.059347566
192	0x3d86efb2	0.06588687
193	0xbe19f3d5	-0.15034421
194	0xbe29e173	-0.16589908
195	0x3cc95b7a	0.024579752
196	0x3de22db3	0.11043873
197	0x3e167c97	0.14695965
198	0xbdb7b46d	-0.0896996
199	0x3e0537f1	0.13009621
200	0x3d8de649	0.06928689
201	0xbc31b0b8	-0.010845356
202	0x3da6ad74	0.08138552
203	0x3da1e563	0.0790508
204	0x3db709a2	0.08937384
205	0x3d6c0720	0.057623982
206	0xbd83e9ca	-0.06441076
207	0x3c2a5774	0.010396827
208	0xbdddd341	-0.10831309
209	0xbda2ac16	-0.07942979
210	0x3c855cbf	0.016279576
211	0xbc624ed3	-0.0138127385
212	0x3d220577	0.039555993
213	0xbd7938f5	-0.060845334
214	0x3d84ce3e	0.0648465
215	0x3d202903	0.03910161
216	0xbe05f0d0	-0.13080144
217	0x3e19ea99	0.15030898
218	0xbdec2cb8	-0.11531967
219	0x3d052da5	0.032514233
220	0xbdb4c719	-0.08827037
221	0xbc77f0d6	-0.015133103
222	0x3de033b0	0.109473586
223	0x3d5b23e4	0.053501025
224	0x3e072e90	0.13201356
225	0xbdff0f53	-0.12454095
226	0x3dc50631	0.096203215
227	0xbcbc1a27	-0.02296169
228	0xbd0cf48a	-0.034412898
229	0xbd631ad0	-0.055445492
230	0xbd3d6542	-0.046239145
231	0x3e18f5fa	0.14937583
232	0xbdf395b9	-0.11893792
233	0x3c88eae8	0.016713575
234	0xbe11ccd7	-0.14238296
235	0xbe1f98f6	-0.15585694
236	0xbd784c87	-0.060619857
237	0xbd1d4454	-0.03839524
238	0x3de8d835	0.11369363
239	0xbdef141c	-0.116737574
240	0xbd5ccb58	-0.05390486
241	0x3d9093d6	0.070594475
242	0x3c7bb4f9	0.015362971
243	0x3d846320	0.06464219
244	0x3def9f86	0.117003486
245	0xbdf6e9aa	-0.12056287
246	0xbdef7070	-0.116913676
247	0xbe086664	-0.13320309
248	0x3cc10289	0.02356078
249	0xbd829b03	-0.063772224
250	0xbd42ab4e	-0.04752665
251	0x3e127d58	0.14305627
252	0x3deebc30	0.11656988
253	0xbcadee11	-0.021231683
254	0x3d1927b8	0.037391394
255	0xbd01abb0	-0.031657875

l2.bias f4 [88]
0	0xbd763183	-0.06010581
1	0x3e0a614b	0.13513677
2	0x3da9625e	0.08270715
3	0xbe0e7161	-0.13910438
4	0xbc50720c	-0.012722503
5	0xbd7999b6	-0.060937606
6	0x3e0de896	0.13858256
7	0x3adfa55a	0.0017062828
8	0xbdf3ecbd	-0.119103886
9	0x3d3e389b	0.046440702
10	0xbde740a2	-0.112916246
11	0x3d8b9395	0.068152584
12	0xbdcc2f36	-0.09969942
13	0x3e08e4c1	0.13368513
14	0xbdc1f79f	-0.09471058
15	0x3dd1868d	0.10230742
16	0x3d34ec88	0.044170886
17	0x3da484b6	0.08033125
18	0xbdf955f2	-0.12174596
19	0xbd94e3d7	-0.072700195
20	0xbd41eeeb	-0.04734699
21	0xbdb9b678	-0.09068006
22	0xbd0c3239	-0.034227584
23	0xbe0e370a	-0.13888183
24	0xbd9c576f	-0.07633864
25	0x3c4a170d	0.012334597
26	0xbd263a97	-0.04058322
27	0xbd82463f	-0.06361055
28	0xbe0660d6	-0.13122877
29	0x3d90e9e7	0.07075863
30	0xbe0e7d90	-0.13915086
31	0x3d316c48	0.043316156
32	0xbe11513a	-0.14191142
33	0x3dd78b3b	0.10524603
34	0xbd3fce69	-0.046827707
35	0x3dd87889	0.10569865
36	0xbd729ba9	-0.05923048
37	0x3d4d4dc8	0.050123006
38	0x3e14f6ab	0.14547221
39	0xbd2a07ff	-0.041511532
40	0x3d31c809	0.04340366
41	0xbdabb28d	-0.08383665
42	0xbd0f4973	-0.034982156
43	0xbe141241	-0.14460088
44	0x3da8a16c	0.08233914
45	0xbc9c8ed5	-0.019111076
46	0xbd867bb1	-0.06566561
47	0xbdb2cd4c	-0.087305635
48	0x3d9a220e	0.07526027
49	0x3dceafce	0.10092126
50	0xbe0bd9c4	-0.1365729
51	0x3d013a52	0.03154976
52	0xbd4edc5a	-0.050503112
53	0x3c1475e4	0.00906131
54	0x3ceaddc4	0.0286702
55	0xbd01adb8	-0.03165981
56	0xbe00aed8	-0.12566698
57	0xbde28daa	-0.110621765
58	0x3d702567	0.05862942
59	0xbd89cd15	-0.067285694
60	0x3c184e0f	0.009295954
61	0xbc46a8c5	-0.012125199
62	0xbd7a5a5f	-0.06112134
63	0xbd29e78e	-0.041480593
64	0xbd6d69b4	-0.057962134
65	0x3ddc47b0	0.10755861
66	0x3da63712	0.081159726
67	0x3cd09b23	0.0254646
68	0x3da057f7	0.07829278
69	0xbdf93a0b	-0.12169274
70	0xbda0bb7c	-0.0784826
71	0x3e034461	0.12819053
72	0xbd8e0a3e	-0.06935547
73	0x3d956ae5	0.07295779
74	0xbb49c301	-0.0030786397
75	0xbdc07491	-0.09397233
76	0xbd9d3570	-0.07676208
77	0xbd663664	-0.056204215
78	0xbe166cfb	-0.1469001
79	0x3d6c079c	0.057624444
80	0xbd14f057	-0.03636202
81	0xbb335687	-0.0027364807
82	0xbd814337	-0.06311648
83	0xbd3e6d3b	-0.04649089
84	0xbda15d8c	-0.07879171
85	0xbd9213de	-0.071326956
86	0xbd97e51b	-0.07416745
87	0x3cd32d9e	0.025778588

final.weight f4 [2, 88]
0	0xbd47f3d0	-0.048816502
1	0x3c76c43c	0.015061434
2	0xbd03e921	-0.03220475
3	0x3dbf23d5	0.09333006
4	0xbc3e5d01	-0.011618854
5	0xbd8faa6a	-0.07014926
6	0xbdca75ab	-0.09885725
7	0x3d859f63	0.06524541
8	0xbd7964a7	-0.060887005
9	0x3d5d15ec	0.053975984
10	0xbb2dbfe9	-0.0026512092
11	0x3cf8989d	0.03034621
12	0xbd2357f4	-0.0398788
13	0x3d84d70f	0.06486332
14	0x3da4fbbb	0.08055826
15	0xbd99af67	-0.075041585
16	0x3d864d07	0.065576605
17	0x3cab13cc	0.020883463
18	0xbd400c78	-0.04688689
19	0xbd15c848	-0.036567956
20	0xbd76e835	-0.060280044
21	0x3da20aeb	0.07912239
22	0xbc035ba2	-0.008017452
23	0xbd71d89c	-0.059044465
24	0x3d9abb6c	0.07555279
25	0x3c0670c0	0.008205593
26	0xbc127c45	-0.008940761
27	0xbd8d13ee	-0.06888567
28	0xbce50d57	-0.027960462
29	0x3c56dea7	0.013114608
30	0x3d4ef483	0.050526153
31	0x3c812247	0.015763415
32	0x3d844314	0.06458107
33	0x3cbba8ce	0.02290764
34	0x3da3ba1b	0.07994481
35	0x3dc3718f	0.09543144
36	0x3d47ace6	0.048748873
37	0xbdbaf21a	-0.091282085
38	0xbb6b9a3f	-0.0035950092
39	0x3d1ccc28	0.038280636
40	0x3d121e86	0.03567364
41	0xbcaacdbc	-0.020850055
42	0xbd344481	-0.044010643
43	0x3da3e81c	0.08003256
44	0x3dc44865	0.09584121
45	0xbc878e8e	-0.016547468
46	0x3cd4422d	0.025910461
47	0x3d4f5efc	0.050627694
48	0x3d38ab25	0.04508509
49	0xbbe36848	-0.0069399215
50	0x3dc888d5	0.09791724
51	0xbd6b35bc	-0.057424292
52	0xbd78de29	-0.060758743
53	0xbd853b0a	-0.065054014
54	0xbd9d327b	-0.07675644
55	0xbde5fd52	-0.11229958
56	0xbdc1a689	-0.09455592
57	0x3db4eda8	0.08834392
58	0xbce380cb	-0.027771374
59	0x3d1d382c	0.038383648
60	0x3d2ccc6c	0.04218714
61	0xbda5770e	-0.080793485
62	0x3d52636c	0.051364347
63	0x3d800b96	0.0625221
64	0xbb2e672e	-0.0026611793
65	0x3dababb2	0.08382358
66	0xbd994f2f	-0.07485806
67	0xbdb32b19	-0.087484546
68	0xbc2874a7	-0.010281718
69	0x3dc949a9	0.09828503
70	0x3d8832c7	0.0665031
71	0xbd014a7c	-0.031565174
72	0xbd740eda	-0.059584476
73	0x3dbe7d6a	0.093012646
74	0xbd1b28a0	-0.03788054
75	0xbdb27611	-0.08713926
76	0xbc299913	-0.010351437
77	0x3daf3cc7	0.08556514
78	0x3d6f1c76	0.05837675
79	0x3c8020c4	0.015640624
80	0xbd9d8706	-0.07691769
81	0x3d8f8889	0.07008464
82	0x3d7f0478	0.06226012
83	0x3dc1f39c	0.09470293
84	0xbd99221e	-0.074772105
85	0xbd03e9e8	-0.032205492
86	0x3d58fe1a	0.052976705
87	0x3d7ba6b5	0.06143828
88	0x3da5a52c	0.08088145
89	0xbc508bb2	-0.012728618
90	0x3d6856f8	0.056723565
91	0xbd7a9795	-0.061179716
92	0x3c33b905	0.010969405
93	0x3c70064d	0.01464994
94	0xbd3e4231	-0.046449844
95	0x3d83dda6	0.064387605
96	0xbd33b5e6	-0.043874644
97	0x3b0b46b2	0.0021251854
98	0x3d02a825	0.031898636
99	0xbd04e4d6	-0.032444797
100	0xbdb0e144	-0.08636716
101	0xbbe08d38	-0.006852772
102	0x3ca4b48c	0.020105623
103	0x3d9eb152	0.07748665
104	0x3d7a3770	0.061088026
105	0xbcf8401a	-0.030304004
106	0xbdee53de	-0.1163709
107	0xbd518dea	-0.05116073
108	0xbd0db056	-0.034591995
109	0x3d2006f8	0.039069146
110	0x3d802342	0.06256725
111	0xbd50eae2	-0.05100525
112	0xbc93837b	-0.01800703
113	0xbd311a54	-0.043238
114	0x3c7ae8ee	0.015314324
115	0xbd91aa9d	-0.0711262
116	0x3dbb814d	0.091555215
117	0x3d6522a3	0.055941235
118	0xbcae9bfb	-0.021314612
119	0x3dc173d0	0.094459176
120	0xbd9fa5bf	-0.077952854
121	0x3cebbbfa	0.028776158
122	0x3cd5bd7f	0.026091335
123	0x3d9e0a87	0.07716852
124	0xbda680d8	-0.08130044
125	0xbd802a92	-0.0625812
126	0x3d4b9496	0.04970225
127	0x3d889e4f	0.0667082
128	0xbd388fbf	-0.045058962
129	0x3c80fab9	0.015744554
130	0x3d3084af	0.043095287
131	0x3b8789ec	0.0041363146
132	0xbda6fc04	-0.08153537
133	0x3d3cba89	0.04607633
134	0x3d8e2365	0.06940345
135	0xbd19b261	-0.03752363
136	0xbd08c049	-0.033386502
137	0x3d342545	0.043980855
138	0x3d9a6d6c	0.07540402
139	0xbc4e3a95	-0.012587209
140	0x3d858a14	0.06520477
141	0xbdb259f4	-0.087085634
142	0xbd0159ed	-0.0315799
143	0x3dd69f12	0.10479559
144	0xbda5a048	-0.08087212
145	0xbd8d50ea	-0.06900199
146	0xbd1a2963	-0.037637126
147	0xbd15f75c	-0.036612853
148	0xbda870f5	-0.0822467
149	0xbcc30d27	-0.023809982
150	0xbd1e4028	-0.038635403
151	0x3ddfb10b	0.1092244
152	0x3d6a8fca	0.057266034
153	0x3d57c3ca	0.052676953
154	0xbd4a6d2b	-0.049420517
155	0x3d2c1fb8	0.042022437
156	0xbb8bfae7	-0.0042718532
157	0x3cb060f1	0.0215306
158	0xbd56ffaa	-0.052489914
159	0xbd63f7d1	-0.055656258
160	0x3d92c3eb	0.07166275
161	0x3d32e112	0.043671675
162	0xbce5746d	-0.028009618
163	0x3d794762	0.06085909
164	0xbc92c9aa	-0.017918427
165	0x3db26ea1	0.08712507
166	0x3db9ffbe	0.09081982
167	0x3d38a6b6	0.045080863
168	0xbd2b5586	-0.04182961
169	0x3d117b89	0.035518203
170	0xbda20661	-0.07911373
171	0xbd2e02b6	-0.042483054
172	0xbde49250	-0.111607194
173	0x3dd4041b	0.103523456
174	0x3d9d5313	0.07681861
175	0xbdcf6809	-0.10127265

final.bias f4 [2]
0	0xbcdfa7f2	-0.027301762
1	0x3d4168db	0.04721914
